Model: "residual_mlp"
┏━━━━━━━━━━━━━━━━━━━━━━━━━━━━━━━┳━━━━━━━━━━━━━━━━━━━━━━━━━━━┳━━━━━━━━━━━━━━━━━┳━━━━━━━━━━━━━━━━━━━━━━━━━━━━┓
┃ Layer (type)                  ┃ Output Shape              ┃         Param # ┃ Connected to               ┃
┡━━━━━━━━━━━━━━━━━━━━━━━━━━━━━━━╇━━━━━━━━━━━━━━━━━━━━━━━━━━━╇━━━━━━━━━━━━━━━━━╇━━━━━━━━━━━━━━━━━━━━━━━━━━━━┩
│ input_layer (InputLayer)      │ (None, 49152)             │               0 │ -                          │
├───────────────────────────────┼───────────────────────────┼─────────────────┼────────────────────────────┤
│ res_initial (Dense)           │ (None, 512)               │      25,166,336 │ input_layer[0][0]          │
├───────────────────────────────┼───────────────────────────┼─────────────────┼────────────────────────────┤
│ res_bn_initial                │ (None, 512)               │           2,048 │ res_initial[0][0]          │
│ (BatchNormalization)          │                           │                 │                            │
├───────────────────────────────┼───────────────────────────┼─────────────────┼────────────────────────────┤
│ res_swish_initial (Swish)     │ (None, 512)               │               0 │ res_bn_initial[0][0]       │
├───────────────────────────────┼───────────────────────────┼─────────────────┼────────────────────────────┤
│ res_dense_0_1 (Dense)         │ (None, 512)               │         262,656 │ res_swish_initial[0][0]    │
├───────────────────────────────┼───────────────────────────┼─────────────────┼────────────────────────────┤
│ res_bn_0_1                    │ (None, 512)               │           2,048 │ res_dense_0_1[0][0]        │
│ (BatchNormalization)          │                           │                 │                            │
├───────────────────────────────┼───────────────────────────┼─────────────────┼────────────────────────────┤
│ res_swish_0_1 (Swish)         │ (None, 512)               │               0 │ res_bn_0_1[0][0]           │
├───────────────────────────────┼───────────────────────────┼─────────────────┼────────────────────────────┤
│ res_dropout_0_1 (Dropout)     │ (None, 512)               │               0 │ res_swish_0_1[0][0]        │
├───────────────────────────────┼───────────────────────────┼─────────────────┼────────────────────────────┤
│ res_dense_0_2 (Dense)         │ (None, 512)               │         262,656 │ res_dropout_0_1[0][0]      │
├───────────────────────────────┼───────────────────────────┼─────────────────┼────────────────────────────┤
│ res_bn_0_2                    │ (None, 512)               │           2,048 │ res_dense_0_2[0][0]        │
│ (BatchNormalization)          │                           │                 │                            │
├───────────────────────────────┼───────────────────────────┼─────────────────┼────────────────────────────┤
│ res_add_0 (Add)               │ (None, 512)               │               0 │ res_bn_0_2[0][0],          │
│                               │                           │                 │ res_swish_initial[0][0]    │
├───────────────────────────────┼───────────────────────────┼─────────────────┼────────────────────────────┤
│ res_swish_0_2 (Swish)         │ (None, 512)               │               0 │ res_add_0[0][0]            │
├───────────────────────────────┼───────────────────────────┼─────────────────┼────────────────────────────┤
│ res_dropout_0_2 (Dropout)     │ (None, 512)               │               0 │ res_swish_0_2[0][0]        │
├───────────────────────────────┼───────────────────────────┼─────────────────┼────────────────────────────┤
│ res_dense_1_1 (Dense)         │ (None, 384)               │         196,992 │ res_dropout_0_2[0][0]      │
├───────────────────────────────┼───────────────────────────┼─────────────────┼────────────────────────────┤
│ res_bn_1_1                    │ (None, 384)               │           1,536 │ res_dense_1_1[0][0]        │
│ (BatchNormalization)          │                           │                 │                            │
├───────────────────────────────┼───────────────────────────┼─────────────────┼────────────────────────────┤
│ res_swish_1_1 (Swish)         │ (None, 384)               │               0 │ res_bn_1_1[0][0]           │
├───────────────────────────────┼───────────────────────────┼─────────────────┼────────────────────────────┤
│ res_dropout_1_1 (Dropout)     │ (None, 384)               │               0 │ res_swish_1_1[0][0]        │
├───────────────────────────────┼───────────────────────────┼─────────────────┼────────────────────────────┤
│ res_dense_1_2 (Dense)         │ (None, 384)               │         147,840 │ res_dropout_1_1[0][0]      │
├───────────────────────────────┼───────────────────────────┼─────────────────┼────────────────────────────┤
│ res_bn_1_2                    │ (None, 384)               │           1,536 │ res_dense_1_2[0][0]        │
│ (BatchNormalization)          │                           │                 │                            │
├───────────────────────────────┼───────────────────────────┼─────────────────┼────────────────────────────┤
│ res_projection_1 (Dense)      │ (None, 384)               │         196,992 │ res_dropout_0_2[0][0]      │
├───────────────────────────────┼───────────────────────────┼─────────────────┼────────────────────────────┤
│ res_add_1 (Add)               │ (None, 384)               │               0 │ res_bn_1_2[0][0],          │
│                               │                           │                 │ res_projection_1[0][0]     │
├───────────────────────────────┼───────────────────────────┼─────────────────┼────────────────────────────┤
│ res_swish_1_2 (Swish)         │ (None, 384)               │               0 │ res_add_1[0][0]            │
├───────────────────────────────┼───────────────────────────┼─────────────────┼────────────────────────────┤
│ res_dropout_1_2 (Dropout)     │ (None, 384)               │               0 │ res_swish_1_2[0][0]        │
├───────────────────────────────┼───────────────────────────┼─────────────────┼────────────────────────────┤
│ res_dense_2_1 (Dense)         │ (None, 256)               │          98,560 │ res_dropout_1_2[0][0]      │
├───────────────────────────────┼───────────────────────────┼─────────────────┼────────────────────────────┤
│ res_bn_2_1                    │ (None, 256)               │           1,024 │ res_dense_2_1[0][0]        │
│ (BatchNormalization)          │                           │                 │                            │
├───────────────────────────────┼───────────────────────────┼─────────────────┼────────────────────────────┤
│ res_swish_2_1 (Swish)         │ (None, 256)               │               0 │ res_bn_2_1[0][0]           │
├───────────────────────────────┼───────────────────────────┼─────────────────┼────────────────────────────┤
│ res_dropout_2_1 (Dropout)     │ (None, 256)               │               0 │ res_swish_2_1[0][0]        │
├───────────────────────────────┼───────────────────────────┼─────────────────┼────────────────────────────┤
│ res_dense_2_2 (Dense)         │ (None, 256)               │          65,792 │ res_dropout_2_1[0][0]      │
├───────────────────────────────┼───────────────────────────┼─────────────────┼────────────────────────────┤
│ res_bn_2_2                    │ (None, 256)               │           1,024 │ res_dense_2_2[0][0]        │
│ (BatchNormalization)          │                           │                 │                            │
├───────────────────────────────┼───────────────────────────┼─────────────────┼────────────────────────────┤
│ res_projection_2 (Dense)      │ (None, 256)               │          98,560 │ res_dropout_1_2[0][0]      │
├───────────────────────────────┼───────────────────────────┼─────────────────┼────────────────────────────┤
│ res_add_2 (Add)               │ (None, 256)               │               0 │ res_bn_2_2[0][0],          │
│                               │                           │                 │ res_projection_2[0][0]     │
├───────────────────────────────┼───────────────────────────┼─────────────────┼────────────────────────────┤
│ res_swish_2_2 (Swish)         │ (None, 256)               │               0 │ res_add_2[0][0]            │
├───────────────────────────────┼───────────────────────────┼─────────────────┼────────────────────────────┤
│ res_dropout_2_2 (Dropout)     │ (None, 256)               │               0 │ res_swish_2_2[0][0]        │
├───────────────────────────────┼───────────────────────────┼─────────────────┼────────────────────────────┤
│ res_dense_3_1 (Dense)         │ (None, 128)               │          32,896 │ res_dropout_2_2[0][0]      │
├───────────────────────────────┼───────────────────────────┼─────────────────┼────────────────────────────┤
│ res_bn_3_1                    │ (None, 128)               │             512 │ res_dense_3_1[0][0]        │
│ (BatchNormalization)          │                           │                 │                            │
├───────────────────────────────┼───────────────────────────┼─────────────────┼────────────────────────────┤
│ res_swish_3_1 (Swish)         │ (None, 128)               │               0 │ res_bn_3_1[0][0]           │
├───────────────────────────────┼───────────────────────────┼─────────────────┼────────────────────────────┤
│ res_dropout_3_1 (Dropout)     │ (None, 128)               │               0 │ res_swish_3_1[0][0]        │
├───────────────────────────────┼───────────────────────────┼─────────────────┼────────────────────────────┤
│ res_dense_3_2 (Dense)         │ (None, 128)               │          16,512 │ res_dropout_3_1[0][0]      │
├───────────────────────────────┼───────────────────────────┼─────────────────┼────────────────────────────┤
│ res_bn_3_2                    │ (None, 128)               │             512 │ res_dense_3_2[0][0]        │
│ (BatchNormalization)          │                           │                 │                            │
├───────────────────────────────┼───────────────────────────┼─────────────────┼────────────────────────────┤
│ res_projection_3 (Dense)      │ (None, 128)               │          32,896 │ res_dropout_2_2[0][0]      │
├───────────────────────────────┼───────────────────────────┼─────────────────┼────────────────────────────┤
│ res_add_3 (Add)               │ (None, 128)               │               0 │ res_bn_3_2[0][0],          │
│                               │                           │                 │ res_projection_3[0][0]     │
├───────────────────────────────┼───────────────────────────┼─────────────────┼────────────────────────────┤
│ res_swish_3_2 (Swish)         │ (None, 128)               │               0 │ res_add_3[0][0]            │
├───────────────────────────────┼───────────────────────────┼─────────────────┼────────────────────────────┤
│ res_dropout_3_2 (Dropout)     │ (None, 128)               │               0 │ res_swish_3_2[0][0]        │
├───────────────────────────────┼───────────────────────────┼─────────────────┼────────────────────────────┤
│ output (Dense)                │ (None, 10)                │           1,290 │ res_dropout_3_2[0][0]      │
└───────────────────────────────┴───────────────────────────┴─────────────────┴────────────────────────────┘
 Total params: 26,592,266 (101.44 MB)
 Trainable params: 26,586,122 (101.42 MB)
 Non-trainable params: 6,144 (24.00 KB)
\n